checkpoints/nn_A.pt (torch, 15523 bytes, 8 tensors)

model.0.weight f4 [64, 4]
0	0x3ce20ce0	0.02759403
1	0xbeb7a3a4	-0.35867035
2	0xbd8f1ef8	-0.06988329
3	0x3d178330	0.036990345
4	0x3edd7630	0.43254232
5	0x3eef399e	0.46723646
6	0x3e8e532e	0.27797836
7	0xbcb91560	-0.0225932
8	0xbe76fb1c	-0.24119228
9	0x3d353240	0.044237375
10	0x3d4c6170	0.04989761
11	0xbe9d28f4	-0.30695307
12	0x3eb4b898	0.35297084
13	0x3edba778	0.42901206
14	0x3ebbf532	0.36710507
15	0x3ed6154e	0.4181313
16	0xbeb6a962	-0.35676104
17	0x3e14f188	0.14545262
18	0xbeed5446	-0.46353358
19	0x3e5e63cc	0.21717757
20	0x3ef1e342	0.47243696
21	0xbe75acc0	-0.2399168
22	0xbdcdc3c0	-0.10047102
23	0xbd4b2b40	-0.049601793
24	0xbeefd6ea	-0.46843654
25	0xbe8072d6	-0.25087613
26	0x3eab2af2	0.33431202
27	0xbefbc07a	-0.49170285
28	0x3efbf476	0.49209946
29	0xbec3a01a	-0.38208085
30	0xbee00e72	-0.4376102
31	0xbe389d88	-0.18028843
32	0xbe8bec28	-0.2732861
33	0xbdc06f68	-0.09396249
34	0x3ece8bc0	0.40340996
35	0xbe7aa288	-0.24476063
36	0x3edcc1c8	0.43116593
37	0x3dfdfc18	0.12401599
38	0xbe36ee20	-0.17864275
39	0xbe955a9a	-0.29170686
40	0xbe8d0e1c	-0.27549827
41	0xbeb7f140	-0.35926247
42	0xbd784b10	-0.06061846
43	0xbee9e4f8	-0.45682502
44	0x3e5fe628	0.21865141
45	0x3e98264a	0.29716712
46	0xbe5967a4	-0.21230942
47	0x3ecaed94	0.39634383
48	0xbbedbf00	-0.007255435
49	0x3d1cb690	0.038260043
50	0xbe2b0650	-0.16701627
51	0x3e757ac4	0.23972613
52	0x3eaead64	0.34116662
53	0x3e7445e4	0.23854786
54	0xbca165a0	-0.019701779
55	0xbd29bf00	-0.041441917
56	0xbdd11c28	-0.102104485
57	0xbea179e4	-0.31538308
58	0x3e93c37c	0.2886008
59	0x3ef7fe0c	0.4843601
60	0xbe34d370	-0.17658782
61	0x3eda2866	0.42608947
62	0x3ebfacb2	0.37436444
63	0xbe8b3924	-0.27192032
64	0xbed07fba	-0.40722448
65	0xbde0da88	-0.109791815
66	0x3eea8ee0	0.4581213
67	0x3eac392e	0.33637375
68	0x3ec54394	0.3852812
69	0xbdaa0658	-0.08301991
70	0xbe6fa0a8	-0.23401129
71	0xbc9808e0	-0.01855892
72	0xbee5a52c	-0.4485258
73	0x3e682264	0.22669369
74	0xbeb6cc96	-0.35702962
75	0xbefab1d4	-0.48963797
76	0xbe2f5ca0	-0.17125177
77	0x3ee36076	0.4440953
78	0xbd91f608	-0.07127005
79	0x3ea1ec2a	0.3162549
80	0x3eddfa6c	0.4335512
81	0xbec44c12	-0.38339287
82	0xbe42d3cc	-0.19026107
83	0xbd1154a0	-0.035481095
84	0xbe92c67a	-0.2866705
85	0x3df741f8	0.120731294
86	0xbebe571e	-0.3717584
87	0x3e063c48	0.13108933
88	0xbeaac524	-0.3335353
89	0x3ec3b06c	0.38220537
90	0x3e54a508	0.2076608
91	0x3e58ad68	0.21159899
92	0xbeedbcd4	-0.46433127
93	0x3e9dd5c2	0.30827147
94	0xbec95578	-0.3932302
95	0xbd96d050	-0.07363951
96	0x3ea9dffa	0.33178693
97	0xbc779d40	-0.015113175
98	0x3e8ac97a	0.2710684
99	0xbeb1ed02	-0.34751135
100	0x3c34a5c0	0.011025846
101	0x3df7d578	0.12101263
102	0xbe144bf4	-0.14482099
103	0x3e0ac038	0.13549888
104	0x3efe926a	0.4972108
105	0x3ed08fcc	0.40734708
106	0x3ed8b6c0	0.42326927
107	0x3ea6e46c	0.32596147
108	0x3ed63cbc	0.41843212
109	0xbe8095d4	-0.2511431
110	0xbe9ccc34	-0.30624545
111	0xbec39bce	-0.38204807
112	0xbe61ee60	-0.22063589
113	0x3e8ce894	0.27521193
114	0x3efa01b2	0.48829418
115	0xbef2750a	-0.4735492
116	0xbedfc830	-0.43707418
117	0x3eb25312	0.34829003
118	0x3e6b3b3c	0.22971815
119	0xbe7b4484	-0.24537855
120	0xbc13ef80	-0.009029269
121	0xbce483a0	-0.027894795
122	0xbe0c565c	-0.13704818
123	0xbec05fce	-0.37573093
124	0x3e3126bc	0.17299932
125	0xbe1ec014	-0.1550296
126	0x3e99a8c8	0.30011582
127	0xbe397598	-0.18111265
128	0xbe3e22e8	-0.18568003
129	0xbe8e3800	-0.277771
130	0xbe140ee4	-0.14458805
131	0xbe129f30	-0.14318538
132	0xbe304254	-0.17212802
133	0x3e25f810	0.1620791
134	0xbed98a84	-0.42488492
135	0x3e75af30	0.2399261
136	0xbe95b882	-0.2924233
137	0x3ef68538	0.48148513
138	0xbef23786	-0.47307986
139	0xbe8e7434	-0.2782303
140	0xbdead3f8	-0.11466211
141	0x3e15f394	0.14643699
142	0x3ea38de2	0.31944185
143	0xbb8eb500	-0.004355073
144	0xbedaf2d8	-0.427634
145	0x3eeec9d2	0.46638352
146	0xbe549cb0	-0.20762897
147	0x3e937e0e	0.2880711
148	0x3eef58f4	0.46747553
149	0x3e1d81a0	0.1538148
150	0x3ee71672	0.45134312
151	0x3e154b4c	0.14579505
152	0x3eca2730	0.39483023
153	0x3eb6c416	0.35696477
154	0x3ebfa5a0	0.3743105
155	0x3d6b00c0	0.057373762
156	0xbd41f580	-0.047353268
157	0xbe7ffc4c	-0.24998587
158	0x3e9bcf6e	0.30431694
159	0x3e5b56f4	0.21419889
160	0xbe4b96c4	-0.19881731
161	0x3e0ec900	0.13943863
162	0x3e6cc358	0.23121393
163	0xbee0229c	-0.43776405
164	0x3dc9d8f0	0.09855831
165	0xbe29053c	-0.16505903
166	0x3e10e934	0.1415146
167	0xbe25da2c	-0.16196507
168	0x3e4eeacc	0.20206755
169	0x3e4e516c	0.20148247
170	0xbe8dc5fa	-0.27690107
171	0xbd4335d0	-0.04765874
172	0xbeb8c608	-0.36088586
173	0x3ef9f3b4	0.48818743
174	0x3d9616b8	0.07328552
175	0xbee7c16a	-0.4526475
176	0x3e70b228	0.23505461
177	0x3ea3a8c6	0.319647
178	0xbe762bf0	-0.24040198
179	0xbe96169a	-0.2931412
180	0x3db98778	0.09059042
181	0x3db83c08	0.08995825
182	0x3b13bb00	0.002254188
183	0x3ea56044	0.32300007
184	0x3dfd8fd8	0.12380952
185	0xbd841698	-0.06449622
186	0xb943f000	-0.00018686056
187	0xbc9d5a20	-0.019208014
188	0x3e561bd0	0.20909047
189	0x3eac20ae	0.33618683
190	0x3e7ca8ec	0.24673814
191	0xbde05f78	-0.10955709
192	0x3e66fdc0	0.22557735
193	0xbe310cd8	-0.17290056
194	0x3e273b3c	0.1633119
195	0x3dd942c8	0.10608441
196	0xbe889c9a	-0.26681978
197	0x3ddeb740	0.10874796
198	0x3b8cc080	0.0042954087
199	0x3ec139f4	0.37739527
200	0xbecc7c74	-0.399387
201	0xbeea9c44	-0.45822346
202	0xbe17d428	-0.14827025
203	0x3e767f8c	0.24072093
204	0x3e5b3cb0	0.21409869
205	0xbec3fa46	-0.3827688
206	0xbedf295c	-0.43586242
207	0xbef18d1e	-0.47177976
208	0x3e46e608	0.19423687
209	0x3ed08888	0.40729165
210	0xbec93fc4	-0.39306462
211	0xbdac00c8	-0.083985865
212	0x3dd7a9c0	0.10530424
213	0x3e882d0c	0.26596868
214	0x3e292078	0.16516292
215	0x3cc41be0	0.023939073
216	0x3eac4968	0.33649755
217	0x3ebcb1d8	0.36854434
218	0x3e1c5880	0.15268135
219	0xbecb0af6	-0.396568
220	0xbe2120b8	-0.15735137
221	0xbe520a94	-0.20511848
222	0xbea54178	-0.3227651
223	0x3dd24278	0.10266584
224	0x3ea128f2	0.3147655
225	0xbe289c58	-0.1646589
226	0x3e482a24	0.19547325
227	0xbea3e0c4	-0.3200742
228	0xbeb2d6ba	-0.34929448
229	0x3b96e400	0.0046048164
230	0x3e351c88	0.17686665
231	0x3e883468	0.26602483
232	0xbef6f00c	-0.48230016
233	0xbe9ff04c	-0.3123802
234	0x3d25e720	0.04050362
235	0x3e80dc9a	0.25168306
236	0xbe7e1f84	-0.2481671
237	0xbe6ca4d8	-0.23109758
238	0x3e8d325a	0.27577478
239	0xbea65204	-0.32484448
240	0xbde1d318	-0.11026591
241	0x3ebd71a6	0.3700077
242	0x3e2829b0	0.16422153
243	0xbebca74c	-0.36846387
244	0xbe773024	-0.24139458
245	0xbe0ba5b8	-0.13637435
246	0x3eed1e68	0.4631226
247	0x3ef9ce08	0.48790002
248	0xbef0195c	-0.46894348
249	0xbecc18d0	-0.3986268
250	0xbe8be2d4	-0.27321494
251	0xbe03aeec	-0.12859696
252	0xbea2b056	-0.3177516
253	0x3e31a284	0.17347151
254	0x3e524cc8	0.20537102
255	0x3ebb9618	0.3663795

model.0.bias f4 [64]
0	0x3e9dfb06	0.30855578
1	0x3e4ed2f4	0.2019766
2	0xbe3fbc0c	-0.18724078
3	0xbef62ea4	-0.4808246
4	0x3eb91e1e	0.3615579
5	0x3ef48c1c	0.47763145
6	0xbebe0a34	-0.3711716
7	0xbe06613c	-0.1312303
8	0x3e85d9a8	0.2614262
9	0x3ec87f7e	0.3915977
10	0x3e81951e	0.2530908
11	0xbe3bd054	-0.1834119
12	0xbec391ca	-0.38197166
13	0xbd5c4840	-0.05377984
14	0x3efe9874	0.49725688
15	0x3e65a540	0.22426319
16	0x3ec37f24	0.38182938
17	0xbecbac8e	-0.39780086
18	0xbed717ee	-0.42010444
19	0xbee11000	-0.4395752
20	0x3d03a930	0.03214377
21	0x3de03f30	0.10949552
22	0xbe2aaaf4	-0.16666776
23	0x3edf515e	0.43616766
24	0xbe9901a4	-0.29884064
25	0x3e4acf74	0.198057
26	0xbed26dcc	-0.41099393
27	0xbed312c2	-0.4122525
28	0xbe3c2d74	-0.18376714
29	0xbecd9c8e	-0.40158504
30	0x3e80eefe	0.25182337
31	0x3ee4d652	0.44694763
32	0x3d6b0450	0.05737716
33	0x3e44f408	0.19233716
34	0xbefee66c	-0.49785173
35	0x3ea7068e	0.32622188
36	0xbde1eca8	-0.11031467
37	0x3d8a1bc8	0.0674358
38	0xbebd26a2	-0.36943537
39	0x3e82539a	0.25454408
40	0x3ecf6dba	0.40513402
41	0x3e46b3a4	0.19404465
42	0x3ee56880	0.4480629
43	0x3ef8a396	0.48562306
44	0xbed852a6	-0.42250556
45	0xbeb949b0	-0.36189032
46	0x3ea9f014	0.33190978
47	0x3e821bfa	0.2541197
48	0xbe186efc	-0.14886087
49	0x3eb14850	0.34625483
50	0xbd7dcef0	-0.06196493
51	0xbec7bfee	-0.39013618
52	0xbed6e7a0	-0.4197359
53	0xbeabf94e	-0.33588642
54	0xbddabc80	-0.10680485
55	0xbeb9d862	-0.362979
56	0xbeb48938	-0.3526094
57	0x3ea4606c	0.32104814
58	0xbebb5ca4	-0.36594117
59	0xbecd6c8e	-0.40121883
60	0x3da73c90	0.08165848
61	0x3e6cbf2c	0.23119801
62	0x3e7c8944	0.24661738
63	0x3d9caa48	0.07649666

model.2.weight f4 [32, 64]
0	0x3db61832	0.08891334
1	0x3ddefd40	0.10888147
2	0xbd2bdc7c	-0.041958317
3	0xbcd69b90	-0.026197225
4	0xbd39e4e8	-0.045384318
5	0x3d8ed9fa	0.069751695
6	0x3db25a7e	0.08708666
7	0x3ddc208e	0.10748397
8	0x3dd6c7dc	0.10487339
9	0xbda55302	-0.08072473
10	0x3d1288b8	0.035774916
11	0xbdfbcc04	-0.12294772
12	0x3c04af10	0.008098379
13	0xbdd1a9d0	-0.10237467
14	0xbd4acf88	-0.049514323
15	0xbd682de8	-0.056684405
16	0x3d68e8f4	0.056862786
17	0x3ddf4b8a	0.1090308
18	0x3ca58ca8	0.020208672
19	0xbd89ebd8	-0.06734437
20	0x3b5274c0	0.0032113045
21	0xbca08a10	-0.019597083
22	0x3b9fe0c0	0.004879087
23	0xbdfba554	-0.12287393
24	0x3d4dca38	0.05024168
25	0x3bd1f5a0	0.0064074546
26	0x3d64a598	0.055821985
27	0x3d862536	0.06550066
28	0xbd24ca00	-0.040231705
29	0xbd3fd500	-0.046833992
30	0xbc3d33f0	-0.011548027
31	0x3dbde450	0.09272063
32	0x3ceb59d8	0.028729364
33	0xbcbdf6e0	-0.023189008
34	0x3dd5c1d0	0.104373574
35	0xbdc08b94	-0.094016224
36	0x3c3322a0	0.010933548
37	0x3d2019c8	0.039087087
38	0x3df9ee52	0.12203659
39	0x3df144f6	0.117807314
40	0x3d122064	0.03567542
41	0xbd2a1ad4	-0.04152949
42	0xbdee13c6	-0.11624865
43	0x3d46eb40	0.048564196
44	0xbda377f0	-0.07981861
45	0x3cf063a0	0.02934438
46	0x3d9142e0	0.070928335
47	0x3caab120	0.020836413
48	0x3ce1e1b8	0.027573451
49	0xbc8c0048	-0.017089978
50	0x3b48f6c0	0.0030664653
51	0xbd307830	-0.04308337
52	0x3b5d9b40	0.003381446
53	0x3c787bc0	0.015166223
54	0xbc3a9c60	-0.011389822
55	0xbd9aab14	-0.07552162
56	0xbb860b40	-0.0040906966
57	0xbd1d26d8	-0.038367122
58	0xbce3f408	-0.027826324
59	0xbd7a3134	-0.06108208
60	0xbde429b0	-0.11140764
61	0xbdc053c2	-0.093909755
62	0x3d22f0e4	0.039780512
63	0xbd8177f6	-0.06321709
64	0xbde0ae6e	-0.1097077
65	0x3bdecae0	0.006799087
66	0x3d4d3460	0.050098777
67	0x3df56f12	0.119840756
68	0x3d9be54e	0.07612096
69	0x3d9305d0	0.07178843
70	0x3dde9034	0.10867348
71	0xbd5ad2c4	-0.053423658
72	0x3d9f3e2c	0.0777553
73	0xbcbe0a08	-0.023198143
74	0x3bc23d60	0.0059277266
75	0xbd6fb8b0	-0.05852574
76	0x3d9026e8	0.07038671
77	0xbc1a9930	-0.009435937
78	0xbc8c98d8	-0.017162725
79	0x3db89106	0.09012036
80	0x3db4be7c	0.088253945
81	0x3d27d4c4	0.040974393
82	0x3db951d6	0.09048812
83	0x3cc36b78	0.023854956
84	0xbd58aee8	-0.05290118
85	0x3d759610	0.059957564
86	0x3d88f3ea	0.06687148
87	0x3d7d4490	0.061832964
88	0xbd903c26	-0.070427224
89	0xbc822028	-0.015884474
90	0xbd8f8e66	-0.07009582
91	0x3de8a008	0.113586485
92	0xbd7749f4	-0.06037326
93	0x3d664ec8	0.056227475
94	0xbdaa47a4	-0.083144456
95	0x3dba8edc	0.091092795
96	0x3d905dce	0.07049142
97	0x3d7f9e0c	0.062406585
98	0xbdca885e	-0.09889291
99	0x3dff4df0	0.12466037
100	0x3d901122	0.07034518
101	0x3d687130	0.05674857
102	0xbd891a92	-0.06694521
103	0x3cd14710	0.02554658
104	0x3d04b104	0.032395378
105	0xbcd5d068	-0.026100352
106	0x3dca2df2	0.098720446
107	0xbdb6ae48	-0.0891996
108	0x3ba2c840	0.0049677193
109	0xbdfaacb6	-0.12239973
110	0x3d94ed26	0.07271795
111	0x3cef3b80	0.029203176
112	0xbd2caa98	-0.04215488
113	0x3dcc86e2	0.09986664
114	0x3db36ac8	0.08760601
115	0x3d37bfa4	0.044860497
116	0x3d985b30	0.07439268
117	0x3df7f494	0.121071965
118	0xbdf90254	-0.12158647
119	0x3d353ba0	0.044246316
120	0x3df2fe9e	0.118649706
121	0xbd4c7578	-0.049916714
122	0x3d7a0cf8	0.061047524
123	0xbd5672d8	-0.052355617
124	0xbd656fb8	-0.056014746
125	0xbc38e110	-0.011284128
126	0xbceeb628	-0.029139593
127	0x3d8611c8	0.0654636
128	0x3ce84f58	0.028358147
129	0xbd9096ba	-0.07059999
130	0xbbdde620	-0.006771818
131	0xbc924038	-0.017852888
132	0xbdb09bf8	-0.08623499
133	0x3d937de0	0.07201743
134	0x3dc805b8	0.09766716
135	0xbb9bf2e0	-0.0047591776
136	0xbc83d5b0	-0.016093105
137	0x3c2ec8d0	0.010667995
138	0xbbc79ae0	-0.0060914606
139	0xbdf891ea	-0.12137206
140	0x3d5b885c	0.05359684
141	0xbdea6a70	-0.114460826
142	0x3dc93012	0.09823622
143	0x3d71ea28	0.0590612
144	0xbde49490	-0.111611485
145	0x3cc3cf00	0.023902416
146	0x3cced690	0.025248796
147	0xbd9b4214	-0.07580963
148	0xbde80278	-0.11328596
149	0xbc4b43a0	-0.01240626
150	0xbdcd56fa	-0.10026355
151	0x3d897f74	0.06713763
152	0xbd4ca1a8	-0.049958855
153	0xbcc26900	-0.023731709
154	0x3d17fa74	0.037104085
155	0x3c789eb0	0.015174553
156	0xbdc5cf20	-0.096586466
157	0xbdd6995e	-0.10478471
158	0x3d9ab26e	0.07553564
159	0xbd8bf8ac	-0.0683454
160	0x3da565de	0.0807607
161	0x3de3c4f4	0.1112155
162	0x3d3dfe40	0.04638505
163	0x3d93877a	0.072035745
164	0x3d19c5ec	0.03754227
165	0x3c83a870	0.016071528
166	0x3db12466	0.086495206
167	0xbd195c18	-0.037441343
168	0xbde103fe	-0.109870896
169	0x3db7e2a6	0.08978777
170	0xbdcdff8c	-0.10058507
171	0x3d318a34	0.04334469
172	0xbd646548	-0.05576065
173	0x3da8f04a	0.082489565
174	0xbba2f5c0	-0.0049731433
175	0x3d7888a0	0.06067717
176	0x3db754b8	0.08951706
177	0xbc5c0940	-0.01342994
178	0x3cdc2230	0.02687177
179	0x3dea0bc2	0.11428024
180	0xbd063a7c	-0.03277062
181	0x3c5d3bc0	0.013503015
182	0xbd95fb0c	-0.07323274
183	0xbd667e8c	-0.05627303
184	0x3b2086c0	0.002449438
185	0x3de7bb02	0.11314966
186	0x3d22f09c	0.039780244
187	0xbd896dc4	-0.06710389
188	0xbd5a6d84	-0.0533271
189	0xbdc2203a	-0.09478803
190	0xbdf13a18	-0.11778659
191	0xbc134f90	-0.008991137
192	0xbd4ec5c0	-0.050481558
193	0x3d9b554e	0.0758463
194	0x3dc46cf4	0.09591094
195	0x3dbe84de	0.09302686
196	0x3d669c24	0.05630125
197	0x3da993e6	0.082801625
198	0xbd76d984	-0.060266033
199	0xbd110990	-0.03540951
200	0x3cb4b720	0.022059977
201	0xbd687188	-0.056748897
202	0xbd5052f8	-0.050860375
203	0xbdbc7148	-0.09201294
204	0xbdf2bd7c	-0.118525475
205	0x3d757ca4	0.05993332
206	0x3c0b66e0	0.008508414
207	0x3d3a07f0	0.045417726
208	0xbde577d8	-0.11204499
209	0x3d52d028	0.051468045
210	0xbda44442	-0.08020832
211	0x3daf7d8c	0.08568868
212	0x3cd2e988	0.025746122
213	0x3da7f7a2	0.08201529
214	0x3dd1833a	0.102301076
215	0x3d59b01c	0.053146467
216	0x3d9106de	0.07081388
217	0xbde459b4	-0.11149922
218	0xbcaee938	-0.021351442
219	0x3c8d79f0	0.017270058
220	0xbd403da4	-0.046933785
221	0xbcbf6e18	-0.023367926
222	0x3dd38844	0.10328725
223	0x3cda8498	0.026674554
224	0xbda41340	-0.08011484
225	0x3dad8720	0.08473039
226	0xbdf8f772	-0.121565714
227	0x3da8c69e	0.08241008
228	0x3d8aa0f6	0.06768982
229	0x3c577f20	0.013152868
230	0xbd93717a	-0.07199378
231	0xba78e800	-0.000949502
232	0x3ce3ccd0	0.027807623
233	0xbd076eb8	-0.033064574
234	0xbbce4020	-0.0062942654
235	0xbc900c50	-0.017583996
236	0xbd9ac32e	-0.07556759
237	0x3d005ef4	0.031340554
238	0x3d8e2330	0.06940305
239	0xbc5d1290	-0.013493195
240	0xbd2d0f6c	-0.042251036
241	0xbd5f4884	-0.054512516
242	0x3d7781c4	0.06042649
243	0x3b0754c0	0.002064988
244	0xbbbb77e0	-0.0057210773
245	0xbdff2d02	-0.124597564
246	0xbd86ac2e	-0.065758094
247	0x3dd3e1f4	0.103458315
248	0xbb9afe80	-0.004730046
249	0xbc9c5928	-0.019085482
250	0xbc654cd0	-0.013995364
251	0xbde83678	-0.11338514
252	0x3d90155a	0.070353225
253	0xbcdf7828	-0.027278975
254	0x3c4ad7b0	0.0123805255
255	0x3da4ca2e	0.08046375

model.2.bias f4 [32]
0	0x3d4e7170	0.05040115
1	0xbc105d30	-0.00881128
2	0xbd246714	-0.040137365
3	0x3c139d80	0.009009719
4	0xbc909f40	-0.017654061
5	0xbdedf376	-0.11618702
6	0xbdb95e0c	-0.09051141
7	0xbd60965c	-0.054830894
8	0x3d0039c0	0.031305075
9	0x3da59332	0.08084716
10	0x3db51ca4	0.088433534
11	0xbda8c006	-0.082397506
12	0xbd122090	-0.035675585
13	0x3de1232e	0.10993038
14	0xbdc1bfcc	-0.094604105
15	0x3d2fd490	0.042927325
16	0x3ca18488	0.019716516
17	0x3d0a636c	0.033786222
18	0xbc8c1e60	-0.017104328
19	0xbd56aa48	-0.052408487
20	0x3d9dd336	0.07706301
21	0xbdfd1b32	-0.12358703
22	0x3cea54a0	0.028604805
23	0x3de9dee0	0.11419463
24	0xbcbc7e78	-0.023009524
25	0x3cce3b98	0.0251749
26	0x3d7741a8	0.06036535
27	0xbdeba6d2	-0.11506428
28	0x3c4c2310	0.012459531
29	0x3d381148	0.044938356
30	0xbd9bea14	-0.07613006
31	0x3b3677c0	0.0027842373

model.4.weight f4 [16, 32]
0	0x3dbeec5a	0.09322424
1	0xbd932148	-0.07184082
2	0xbe2f52ec	-0.17121476
3	0xbe2bafd8	-0.16766298
4	0x3e1e1a2f	0.15439676
5	0xbc9f5a60	-0.019452274
6	0xbe1b2997	-0.15152584
7	0x3d9ae38a	0.07562931
8	0x3dbd26de	0.09235929
9	0x3de0709e	0.1095898
10	0xbd120d44	-0.035657182
11	0x3dd89b0a	0.10576446
12	0xbde67cf5	-0.112543024
13	0x3c11c850	0.008897856
14	0xbdd2fcb1	-0.10302103
15	0xbaf5f680	-0.0018765479
16	0xbccefa78	-0.025265917
17	0xbe207f1a	-0.15673485
18	0xbdf55848	-0.11979729
19	0x3cdb5ff8	0.02677916
20	0xbe087ce1	-0.13328888
21	0xbd801a8d	-0.06255064
22	0x3dcdc94a	0.100481585
23	0xbe21d0a4	-0.15802246
24	0x3e012771	0.12612702
25	0x3e3452b7	0.17609678
26	0xbdc2031a	-0.09473248
27	0x3d1008d0	0.035164654
28	0x3e249195	0.1607116
29	0xbd9c0076	-0.076172754
30	0x3c282340	0.0102623105
31	0xbdae218c	-0.08502492
32	0x3d8cbabc	0.06871554
33	0x3ce793a8	0.02826865
34	0x3e021d7f	0.12706564
35	0x3c7d7540	0.015469849
36	0x3de8025a	0.113285735
37	0x3e10cf83	0.1414166
38	0xbd33e704	-0.043921486
39	0xbd42ba80	-0.04754114
40	0x3e34bc8f	0.17650054
41	0xbe1cf783	-0.15328793
42	0xbdaac30e	-0.08337985
43	0x3d5aaf54	0.053389862
44	0xbd92c040	-0.07165575
45	0xbc1be6e0	-0.009515494
46	0x3e032c37	0.12809835
47	0xbe0f7b57	-0.14011894
48	0xbd26b344	-0.040698305
49	0xbe01a0c6	-0.12658986
50	0x3c133690	0.008985177
51	0x3c8008b0	0.015629143
52	0x3e23fb17	0.16013752
53	0x3d58c338	0.05292055
54	0x3e252e89	0.16131033
55	0xbe15a360	-0.14613104
56	0xbdfc5ded	-0.123226024
57	0xbe01e452	-0.12684754
58	0x3e329839	0.17440881
59	0xbe160022	-0.14648488
60	0x3de792ca	0.11307295
61	0xbde20629	-0.11036331
62	0x3c8e2168	0.017349914
63	0x3d5dacfc	0.05412005
64	0xbbddd180	-0.006769359
65	0x3be48400	0.0069737434
66	0x3db2dcf2	0.08733548
67	0xbd508328	-0.05090633
68	0x3b7fad00	0.0039013028
69	0x3c322de0	0.010875195
70	0xbdc6703e	-0.09689377
71	0x3d1f7cc8	0.03893736
72	0xbc04c0e0	-0.008102626
73	0xbdc67e6d	-0.096920826
74	0x3d5028fc	0.050820336
75	0xbde2a6ed	-0.11066995
76	0x3de25976	0.110522196
77	0x3deb2d62	0.114832655
78	0xbe0ff702	-0.1405907
79	0xbcc98668	-0.024600223
80	0x3d061000	0.032730103
81	0x3e33e0f3	0.1756628
82	0x3db333f6	0.08750145
83	0x3e246797	0.16055141
84	0xbd67ba86	-0.056574367
85	0xbe0c6eb8	-0.13714111
86	0x3dc39d46	0.09551482
87	0xbe08a4dc	-0.13344139
88	0xbe0dfe67	-0.13866578
89	0x3d644f00	0.055739403
90	0x3dcdc64a	0.10047586
91	0x3d27fa58	0.04101023
92	0xbdf85114	-0.121248394
93	0xbdc781f2	-0.09741582
94	0x3bc565e0	0.0060241073
95	0xbd805316	-0.062658474
96	0x3e0c6c21	0.13713123
97	0x3ddcd14a	0.10782106
98	0xbe0e3ab9	-0.13889588
99	0x3d7d11c4	0.06178452
100	0x3d2d9034	0.04237385
101	0xbd14396c	-0.036187574
102	0xbac61600	-0.0015112758
103	0xbd91f465	-0.07126693
104	0xbe2d04d9	-0.1689638
105	0x3b8833a0	0.004156545
106	0xbdb7caa4	-0.089741975
107	0x3e12e29f	0.14344262
108	0x3cd2d8d0	0.02573815
109	0x3db4e062	0.0883186
110	0x3e256fb1	0.16155888
111	0x3de8deb6	0.11370604
112	0xbdec0b34	-0.11525574
113	0x3d6fb06c	0.05851786
114	0xbdc6b784	-0.097029716
115	0x3d841e76	0.064511225
116	0x3cac2468	0.021013454
117	0x3df0e6f6	0.11762802
118	0x3c0535c0	0.008130491
119	0x3c33b140	0.010967553
120	0x3d40dc90	0.047085345
121	0x3b54e5c0	0.0032485574
122	0x3ca00f98	0.019538686
123	0x3e30a1ab	0.17249171
124	0x3e1932eb	0.1496083
125	0xbdc1c46a	-0.09461291
126	0xbde83c00	-0.11339569
127	0xbbf591e0	-0.0074941963
128	0x3d431864	0.047630683
129	0x3d2db610	0.042409956
130	0xbdd5a7ae	-0.10432373
131	0xbd1672a4	-0.036730424
132	0x3e33c8e9	0.1755711
133	0xbd901a15	-0.07036225
134	0xbe1cfa53	-0.15329866
135	0xbcaf2df0	-0.02138421
136	0xbd2a9ce0	-0.041653514
137	0xbe26b3d1	-0.16279532
138	0x3e0a6847	0.13516341
139	0xbd39dcd8	-0.04537663
140	0xbc119740	-0.0088861585
141	0xbdf59042	-0.119904056
142	0xbd9d720f	-0.076877706
143	0xbdad9f05	-0.08477596
144	0x3e1fedc3	0.15618043
145	0xbdc53e62	-0.09631039
146	0xbc101cf0	-0.008795962
147	0x3e1ed11b	0.15509455
148	0xbdba2eee	-0.090909824
149	0xbbc37e60	-0.005965993
150	0xbd9a45a3	-0.075328134
151	0x3e32d8c9	0.1746551
152	0x3d166fd0	0.036727726
153	0xbdab1c07	-0.08354955
154	0x3c976dd0	0.01848498
155	0x3ae06300	0.0017119348
156	0xbe11a772	-0.14224032
157	0x3d77c7a8	0.06049314
158	0x3dde848a	0.108651236
159	0x3de2cc3e	0.11074112
160	0x3e061dc5	0.13097294
161	0xbd81b77e	-0.063338265
162	0x3e0b67df	0.13613842
163	0xbe0a7c4d	-0.1352398
164	0x3e32d147	0.17462645
165	0x3e0c0337	0.13673101
166	0xbe0427c8	-0.129058
167	0x3df2ca3a	0.11854978
168	0x3e0b9fb9	0.13635148
169	0x3dab5332	0.083654776
170	0x3d9d526e	0.07681738
171	0xbe333730	-0.17501521
172	0x3d04b71c	0.03240119
173	0xbce32ce0	-0.027731359
174	0xbe08a020	-0.13342333
175	0xbde24f20	-0.11050248
176	0x3dc1ee06	0.094692275
177	0x3e1348ab	0.1438319
178	0x3d6a31ec	0.057176515
179	0x3e05b74d	0.13058205
180	0xbe0086a8	-0.12551367
181	0xbd68389c	-0.056694612
182	0x3d8cca12	0.06874479
183	0xbdbe45c2	-0.09290649
184	0x3bb57360	0.0055374354
185	0x3e1764ed	0.14784594
186	0x3e2951f9	0.16535176
187	0x3d9d9002	0.07693483
188	0x3d65c414	0.056095198
189	0xbd8e3241	-0.06943179
190	0xbe1c048e	-0.15236112
191	0xbdb6ccde	-0.08925794
192	0x3e20486f	0.15652631
193	0xbdbc2bf5	-0.09188072
194	0x3d4689a0	0.048471093
195	0x3e1dae6f	0.15398572
196	0xbde3a664	-0.11115721
197	0xbca711c0	-0.020394206
198	0x3e01bc17	0.12669407
199	0x3dec9812	0.115524426
200	0x3ce06480	0.027391672
201	0xbdab417b	-0.08362099
202	0xbe310f34	-0.17290956
203	0xbdb7bae0	-0.089711905
204	0xbc3f7b30	-0.011687085
205	0xbbd6bca0	-0.0065532476
206	0x3da7ac1e	0.081871256
207	0x399a9a00	0.00029487908
208	0xba3dea00	-0.00072446465
209	0xbd8d440c	-0.068977445
210	0xbd5e2614	-0.054235533
211	0x3d8a7392	0.067603245
212	0x3de9199e	0.11381839
213	0xbd7377fe	-0.059440605
214	0xbda9bd0c	-0.08288011
215	0xbc9d1cc0	-0.019178748
216	0x3cd22c48	0.02565588
217	0xbdaad67a	-0.083416894
218	0xbc10b7a0	-0.008832842
219	0x3e2c3b4f	0.168195
220	0xbe2894c5	-0.16463001
221	0x3db6b716	0.089216396
222	0x3d896524	0.06708744
223	0xbdcc06d1	-0.099622376
224	0x3d8a71ba	0.06759973
225	0x3d67690c	0.056496665
226	0xbdebed1e	-0.11519836
227	0xbe1524ba	-0.14564791
228	0xbdc65f94	-0.09686199
229	0xbd93e19a	-0.072207645
230	0x3e023f8d	0.12719555
231	0xbdf07227	-0.11740523
232	0xbc751990	-0.014959708
233	0xbcf99fe0	-0.030471742
234	0xbe16012a	-0.14648882
235	0x3e2ac989	0.16678442
236	0x3d1a1144	0.037614122
237	0xbe16200c	-0.14660662
238	0xbdb2b802	-0.08726503
239	0x3daa2a8a	0.08308895
240	0xbdcab636	-0.09898035
241	0xbd2c6840	-0.042091608
242	0x3d8a7b26	0.0676177
243	0xbc0e4630	-0.008683726
244	0xbe1153fe	-0.14192197
245	0xbd52ee18	-0.051496595
246	0xbca76ee8	-0.020438626
247	0x3b96b8c0	0.0045996606
248	0xbd85df1f	-0.065366976
249	0x3ccbcdd8	0.024878427
250	0x3c99e5a8	0.018786266
251	0x3d6530b8	0.055954665
252	0xbe1bd248	-0.15216935
253	0x3d89937c	0.067175835
254	0xbcca0110	-0.02465871
255	0x3daea6d2	0.08527912

model.4.bias f4 [16]
0	0xbded3a62	-0.11583401
1	0xbe05e464	-0.13075405
2	0xbdb93445	-0.09043173
3	0x3da14eda	0.07876368
4	0xbdfd7f08	-0.12377745
5	0xbcd608e0	-0.026127279
6	0x3db77526	0.08957891
7	0x3dfdef26	0.123991296
8	0xbdb810a2	-0.089875475
9	0xbd5db074	-0.054123357
10	0x3dd634da	0.104592994
11	0xbd643f0a	-0.05572418
12	0xbdca2867	-0.098709874
13	0x3dc96436	0.09833567
14	0xbe29c1af	-0.1657779
15	0x3e09cbef	0.134567

model.6.weight f4 [4, 16]
0	0x3e30935a	0.1724371
1	0xbe32fe06	-0.17479715
2	0xbe43d61e	-0.19124648
3	0xbcfc6a60	-0.030812442
4	0x3d6d0bb0	0.057872474
5	0x3de11ba8	0.10991603
6	0x3e032326	0.12806377
7	0x3d82cf00	0.06387138
8	0x3e4a4460	0.19752645
9	0xbe74b828	-0.23898375
10	0x3c9ee8b0	0.019398063
11	0xbda6eef4	-0.081510454
12	0x3d61cd48	0.055127412
13	0x3e64d810	0.22348046
14	0xbdabd9fc	-0.083911866
15	0xbd9a7db0	-0.07543504
16	0xbd84c3c0	-0.06482649
17	0xbe3b33da	-0.18281499
18	0x3c87e7d0	0.016590029
19	0xbe407312	-0.18793896
20	0xbca61120	-0.020271838
21	0xbd10d030	-0.035354793
22	0xbd646090	-0.05575615
23	0xbda646a4	-0.081189424
24	0xbbbfafc0	-0.0058498085
25	0x3c94f930	0.018185228
26	0xbe3cac94	-0.18425208
27	0xbe1cdb18	-0.15317953
28	0x3e3a21c2	0.1817694
29	0x3d9c5428	0.07633239
30	0x3ca78f50	0.020454079
31	0x3cbe1290	0.02320221
32	0xbd81279c	-0.06306383
33	0xbe73a868	-0.2379471
34	0x3dbcdd64	0.092219144
35	0x3da8ee44	0.082485706
36	0xbdf72634	-0.120678335
37	0xbe42ee0c	-0.1903612
38	0x3e5a2510	0.213032
39	0x3e2b82c0	0.16749096
40	0xbe14e6e4	-0.14541203
41	0xbd01ed88	-0.031720668
42	0x3d7e2f00	0.06205654
43	0x3e0fc05a	0.1403822
44	0x3e30e608	0.1727525
45	0xbd9687bc	-0.07350108
46	0xbdc6ad3c	-0.097010106
47	0xb9130800	-0.00014021993
48	0x3d8a96bc	0.067670316
49	0x3e10dc1a	0.14146462
50	0xbe6e953c	-0.23299116
51	0xbe3ad8f4	-0.18246824
52	0xbdee1174	-0.11624423
53	0x3e37505c	0.17901748
54	0x3e5c9440	0.21540928
55	0x3e6c696e	0.23087093
56	0xbe0eee62	-0.13958123
57	0x3dec8644	0.11549047
58	0x3d617848	0.05504635
59	0x3e0f7052	0.1400769
60	0xbd12af58	-0.035811752
61	0x3e49a1bc	0.19690603
62	0xbd992a68	-0.074787915
63	0xbcb5cf90	-0.0221937

model.6.bias f4 [4]
0	0x3e0c3ae8	0.13694346
1	0x3d609db8	0.054837912
2	0xbe4447c4	-0.19168001
3	0x3e400dc8	0.18755257
