checkpoints/nn_B.pt (torch, 15523 bytes, 8 tensors)

model.0.weight f4 [64, 4]
000000 ba 6a f8 3e c0 95 b0 be 40 91 63 be 00 08 f6 b9
       0.48518926 -0.3448925 -0.22223377 -0.00046926737
000010 18 5a 84 3d 80 95 ee 3b 70 df 7d 3e 70 5a a9 be
       0.064624965 0.0072810054 0.24792266 -0.3307681
000020 00 af f2 3b 08 03 c3 be 0c 7b 1a 3e 46 a2 ef be
       0.0074061155 -0.3808825 0.15086001 -0.46803492
000030 c0 6f 8a 3d 58 3f 69 3e 1c 34 8b be 3c f1 09 3e
       0.06759596 0.2277807 -0.27188194 0.1347093
000040 24 d6 05 be c0 09 f0 be 66 b7 ae 3e f4 c1 85 be
       -0.1306997 -0.4688244 0.34124297 -0.26124537
000050 d8 77 c2 be ac 7d d0 be 6e 5e b2 be e0 3e 0b bd
       -0.3798206 -0.4072088 -0.3483767 -0.03399551
000060 84 9a b7 be 08 68 5b be 48 01 d8 be 7c 43 f1 3e
       -0.35860074 -0.21426404 -0.42188478 0.471218
000070 a0 09 b2 3c fc c0 1f 3e 20 9d 13 3d 88 63 93 be
       0.021733105 0.15600961 0.036038518 -0.28786874
000080 b8 31 8f be 20 8c c0 bc 18 0a ee 3e 74 c5 be 3e
       -0.2796762 -0.023504317 0.46492076 0.3726002
000090 5e 41 ed 3e 30 ec 01 be 88 9b fa 3d 68 63 c6 3d
       0.46338934 -0.12687755 0.122366965 0.09686929
0000a0 e0 3e c2 be e0 39 ed 3d 0a 47 86 3e 00 4d bc 3c
       -0.37938595 0.115833044 0.26226074 0.022985935
0000b0 a0 15 91 bc 28 c5 f6 bd 48 7b d1 3e 1c 92 fa be
       -0.017710507 -0.12049323 0.4091437 -0.48939598
0000c0 e8 4a 99 3e f8 5b ce 3e 94 8f 72 3e c0 81 1d be
       0.2993996 0.40304542 0.23687583 -0.15381527
0000d0 30 58 37 bd 80 27 1e be 0a 98 b0 be 84 d8 a3 be
       -0.044761837 -0.15444756 -0.34490997 -0.32001126
0000e0 00 78 b7 3d c0 5a e3 bd d0 49 40 bd ec 10 16 3e
       0.08958435 -0.111012936 -0.046945393 0.14654893
0000f0 24 44 b2 3e 82 a2 9a 3e 96 53 9a 3e 50 fc 68 be
       0.34817612 0.3020211 0.30141896 -0.227525
000100 90 ef 56 bd 40 a4 0a be d4 d6 30 3e f6 ee c8 3e
       -0.05247456 -0.13539219 0.1726945 0.39244813
000110 1c 82 ee 3e ec d1 57 be 0c ad b0 be 0c 28 d5 3e
       0.4658364 -0.21076173 -0.34507024 0.41632116
000120 1e 94 be be 96 0c a2 be 38 25 48 be 0e 55 96 be
       -0.3722238 -0.31650227 -0.19545448 -0.29361767
000130 e6 ad ce 3e b4 fd 16 3e d4 19 70 3e ca 31 ef 3e
       0.4036705 0.14745218 0.23447353 0.46717674
000140 34 b9 a8 3e e8 4c bb 3e 00 00 dd b7 00 b5 82 bc
       0.329538 0.36582112 -2.6345253e-05 -0.015955448
000150 12 ce bc 3e 2c ed 54 be 14 cd 48 3e f0 d1 f4 3d
       0.3687597 -0.20793599 0.19609481 0.11954105
000160 f0 7c ef be 5e 82 9e be ee d9 8f 3e 72 14 dd 3e
       -0.46775007 -0.30958837 0.28095955 0.4317966
000170 88 4b 3b 3e 48 66 62 3e 92 d7 97 be 6c 7a 89 3e
       0.18290532 0.2210933 -0.29656655 0.26851213
000180 80 07 ec bb c0 4f 99 3e c0 7b f2 bd 50 c8 ed 3d
       -0.0072030425 0.29943657 -0.1184001 0.11610472
000190 96 54 a4 3e b0 7b ed 3e 80 f1 9f 3e 58 3c a1 bd
       0.32095784 0.4638343 0.31238937 -0.07872838
0001a0 70 f1 2f bd 28 23 ae bd a2 e3 90 be 08 70 be 3e
       -0.042954862 -0.08502799 -0.2829867 0.37194848
0001b0 96 d1 9d be 24 61 3d be ac 04 1d be cc e9 c5 be
       -0.30823964 -0.18494087 -0.15333813 -0.38654935
0001c0 78 81 17 3e e0 a0 c7 3d 80 7d 22 be 70 23 0f be
       0.14795482 0.09747481 -0.15868187 -0.13978362
0001d0 ae e6 87 3e e2 ea 8c 3e ae 37 a6 3e f0 b6 cb 3e
       0.26543182 0.2752295 0.32464355 0.39788008
0001e0 86 67 89 be ee 33 b1 be ca bf f9 be 72 58 f2 3e
       -0.26836795 -0.34609932 -0.48779136 0.47333103
0001f0 80 49 7e 3d a0 89 d7 bd 28 a8 ad 3e c0 1a e2 3c
       0.062081814 -0.10524297 0.33917356 0.027600646
000200 3a e1 a1 3e f4 ef 94 3e f0 2c 97 3d 3c 49 82 be
       0.31617147 0.2908932 0.07381618 -0.25446498
000210 20 3e 66 3e 40 10 f5 be f0 ff f8 be b0 45 1e bd
       0.22484636 -0.4786396 -0.48632765 -0.038640678
000220 aa 2b f1 be f0 81 62 be 0c 62 62 3e 10 0d fc 3d
       -0.47103626 -0.2211988 0.22107714 0.12307179
000230 68 68 81 be 36 45 de 3e 80 5d c1 bc 80 a3 c8 bc
       -0.25274968 0.4341218 -0.023604155 -0.024492025
000240 76 1b da be 74 bf 90 3e e0 50 21 bd 70 48 2b 3d
       -0.42599076 0.28271067 -0.03938377 0.04181713
000250 b8 16 8c 3e c0 f0 89 bd 58 4e 12 be 60 08 11 be
       0.27361083 -0.067353725 -0.14287698 -0.14163351
000260 d0 4d fe 3d b8 8d d4 bd 06 4a e3 be 86 44 98 3e
       0.12417185 -0.10378593 -0.44392413 0.2973978
000270 56 c5 eb 3e f0 0b 37 3d 18 f0 17 3e 8c c8 51 3e
       0.46048993 0.04468912 0.14837682 0.20486659
000280 f0 dc 60 3d 84 ef 1a be 74 cf 79 be 22 86 ae 3e
       0.054898202 -0.1513043 -0.24395543 0.3408671
000290 d0 be f3 bd 20 4e d6 3d 30 fc e2 bd 00 46 c1 3b
       -0.11901629 0.1046412 -0.11083257 0.005898237
0002a0 cc e4 f2 3e 54 6b b8 3e 08 1d 85 be 24 09 c4 be
       0.47440183 0.36019385 -0.25998712 -0.38288224
0002b0 80 8b f7 bb c4 4a e0 be a0 ee 87 3e 9c 07 16 3e
       -0.0075544715 -0.43807042 0.26549244 0.1465134
0002c0 84 bb d4 be 20 27 2f be 96 66 95 be 94 a1 b2 be
       -0.41549313 -0.17104769 -0.2917983 -0.348889
0002d0 68 61 0e be 58 a6 0e 3e 10 04 fc be 5c 6d b1 3e
       -0.13904345 0.13930643 -0.4922185 0.34653747
0002e0 68 62 18 3e f4 73 aa 3e b0 70 ff 3d 48 da 97 3e
       0.14881289 0.3329159 0.12472665 0.29658723
0002f0 1e 81 f2 be 4a fe f1 be 54 c2 d3 3e 64 36 e2 3e
       -0.47364134 -0.4726432 0.41359198 0.44182122
000300 b6 39 ff be 60 a8 8b be 70 b9 a1 be b0 39 23 3e
       -0.49848717 -0.27276897 -0.3158679 0.15939975
000310 a4 f4 37 3e 74 aa 49 be 68 6b 6e be 5e a9 be be
       0.17964417 -0.19693929 -0.2328316 -0.37238592
000320 9e bf c9 be 00 67 b2 bc 4e 36 ae 3e 0c 12 3c 3e
       -0.39404005 -0.02177763 0.34025806 0.1836626
000330 00 01 c3 be 50 3f 83 bd 2c d4 11 be b0 a4 e2 3e
       -0.380867 -0.0640856 -0.14241093 0.44266272
000340 f8 2d 5b 3e 58 ac 41 be 40 aa fd bd 4c d7 fb be
       0.21404254 -0.189134 -0.12385988 -0.49187696
000350 3c 1f 7e be 88 fa 8f be 70 0b 9b 3e 1a bc 9f be
       -0.24816602 -0.28120828 0.30282164 -0.31198198
000360 82 d9 86 3e b0 d2 e4 3e b0 55 83 bd 20 37 c1 3c
       0.2633782 0.44691992 -0.06412828 0.023585856
000370 00 e5 20 3d a0 18 7b 3d d8 a1 91 3e f0 ec 7e be
       0.03928089 0.06130278 0.2844379 -0.24895072
000380 7a d7 85 3e 42 6e ab 3e f6 4a d4 be 62 02 b4 be
       0.26140958 0.33482558 -0.4146344 -0.35158068
000390 c4 07 0e be 28 19 c9 bd ce 00 ad be 4e a5 fc 3e
       -0.1387015 -0.09819251 -0.33789676 0.49344867
0003a0 88 86 68 be b8 5b c1 3d 70 d9 bd 3e aa c2 f7 be
       -0.2270757 0.09441322 0.37079954 -0.48390704
0003b0 f0 95 bd bd 40 97 06 3e 56 3a d1 be 50 6c e5 bd
       -0.09257114 0.13143635 -0.4086482 -0.112022996
0003c0 4c b7 80 be 00 3c 84 bb dc 87 5a 3e a0 f0 b3 3c
       -0.25139844 -0.004035473 0.21340889 0.021965325
0003d0 60 69 9d 3e 5c 1b e7 3e 8e 50 90 be 74 12 0e 3e
       0.30744457 0.4513806 -0.28186458 0.13874227
0003e0 80 10 a8 3b 9c 0c 91 3e b4 0a fa be 08 bb bb 3d
       0.00512892 0.28329933 -0.4883629 0.09166533
0003f0 6a 71 e9 3e 70 82 bd 3e 5a 00 ec be 38 a1 1f 3e
       0.4559434 0.37013578 -0.46094018 0.15588844

model.0.bias f4 [64]
000000 4a 83 90 3e 6c cb 06 be d0 43 fb 3d a0 50 3f be
       0.28225166 -0.13163537 0.122687936 -0.186831
000010 f8 0f 1e 3e 30 cf 5b 3d 60 6d 70 3e 6a 60 92 3e
       0.15435779 0.053664386 0.23479223 0.28589183
000020 92 8f 80 3e 6e 6e ea be 30 4f f6 bd 80 22 6f bc
       0.25109535 -0.45787376 -0.120268226 -0.014595628
000030 88 19 38 3e 90 25 5b 3d ba c5 f0 be b4 f1 d4 3e
       0.1797849 0.05350262 -0.47025853 0.41590655
000040 80 05 27 3d 80 d8 a3 3c 24 e2 51 be 60 68 b4 bd
       0.04077673 0.020000696 -0.20496422 -0.088089705
000050 c6 99 d3 3e 68 c4 61 be 2a 2c 9e 3e 98 1e 7b be
       0.41328257 -0.2204758 0.3089307 -0.2452339
000060 ce 67 d1 be 0c 3c 12 3e f8 e3 0f 3e 5a f0 a5 be
       -0.4089951 0.14280719 0.14051807 -0.32409936
000070 88 7a 86 3e 20 e2 df bc 92 e1 f7 3e d0 00 5a bd
       0.2626536 -0.027329504 0.48414284 -0.05322343
000080 80 67 bb be a6 1e aa 3e 40 9b bd 3e b0 21 fe 3d
       -0.36602402 0.33226508 0.3703251 0.12408769
000090 fc 64 86 be c0 cb be bc 28 6e b6 3e c4 e5 12 be
       -0.2624892 -0.023290515 0.35630918 -0.14345461
0000a0 b0 0a 48 bd 80 6c 04 be 86 e3 97 3e ee 24 ff 3e
       -0.048838317 -0.12932014 0.29665774 0.49832863
0000b0 d4 36 fa 3e 00 e7 44 3e 20 2e 1b 3e 6a ca ac 3e
       0.48869956 0.19228745 0.15154314 0.3374818
0000c0 d0 9f dd 3e 74 e3 11 3e b4 77 a1 be 94 bf d7 be
       0.4328599 0.14246923 -0.3153664 -0.4213835
0000d0 d6 0c bd be e0 35 e3 3d 80 f8 cd bd 84 03 87 3e
       -0.36923856 0.1109426 -0.10057163 0.2636987
0000e0 22 42 9b 3e 84 d2 79 be 30 55 c5 bd 70 3d cc bd
       0.30323893 -0.24396712 -0.09635389 -0.09972656
0000f0 98 6b 34 be 3e de 84 3e 18 0e 38 be 40 51 9a bd
       -0.17619169 0.25950807 -0.17974126 -0.075350285

model.2.weight f4 [32, 64]
000000 98 57 87 3d dc b3 33 bd f8 ad 5c 3d 2c e6 7a bd
       0.06608504 -0.0438727 0.053876847 -0.061254665
000010 40 37 b5 3c 32 56 f6 3d c4 17 21 bd f0 88 7a 3d
       0.022121072 0.12028159 -0.039329305 0.06116575
000020 00 14 28 bd 9c 75 d2 bd 7c bd af 3d 90 5c 90 bd
       -0.0410347 -0.102763385 0.08581063 -0.07048905
000030 de 5e 93 3d c0 aa a8 bc 1e 05 a2 3d 8c af 85 3d
       0.07195829 -0.020589232 0.07911132 0.065276235
000040 90 90 d2 bc 6e 7d ec bd 0a a1 d7 bd d6 56 99 bd
       -0.025703698 -0.11547361 -0.10528763 -0.07487266
000050 1c c7 6d bd 38 01 86 3d cc f0 05 3d b0 43 d3 3d
       -0.058051214 0.06543201 0.032700345 0.10315645
000060 5e 71 9a 3d 8c 09 c9 3d 80 9d 79 3b fe 81 e9 3d
       0.07541154 0.09816274 0.0038088262 0.11401747
000070 a0 f6 d6 bb bc b8 7c bd 00 45 27 bd ae b1 d1 bd
       -0.0065601617 -0.061699614 -0.040837288 -0.10238968
000080 9a 99 93 3d 62 3a bd 3d 74 99 3f bd c8 a6 ae bd
       0.072070315 0.09239651 -0.046777204 -0.08527905
000090 c0 8d 65 3b 44 0c f5 3d b4 0c 54 bd 64 d2 c4 3d
       0.0035027117 0.1196523 -0.051769927 0.09610441
0000a0 e0 f1 0b 3c 58 5d 56 3d 6c 1c 26 3d d2 70 b3 bd
       0.008541554 0.052335113 0.04055445 -0.08761753
0000b0 5e 07 ba 3d 20 0d 3e bc 00 40 41 38 98 79 22 3d
       0.090834364 -0.011599809 4.607439e-05 0.039666742
0000c0 94 8c a7 bd 10 f3 66 3c 80 cb a3 3d 2c 67 4e bd
       -0.0818111 0.014096037 0.07997799 -0.05039136
0000d0 20 d5 de bd 58 f6 f9 bc f2 2a dc 3d 08 0e b2 3c
       -0.10880494 -0.030512974 0.10750379 0.021735206
0000e0 d4 7d 59 bd b8 11 ae 3c 64 ad be 3d de 7a c2 3d
       -0.053098515 0.021248683 0.093104154 0.09496091
0000f0 b8 e8 a1 bc 28 df b6 3c 48 e4 d0 3d 80 19 9c 3d
       -0.01976429 0.022323206 0.10199791 0.07622051
000100 dc 97 4a 3d 70 19 c1 bc 98 35 e9 bc 90 91 6f 3c
       0.04946123 -0.0235717 -0.028467938 0.014622107
000110 fe e7 aa bd e8 60 cb bc 48 2e 56 bd c0 2f cc 3b
       -0.0834503 -0.024826482 -0.05229023 0.006231278
000120 f8 d8 71 3d 30 e3 51 bc 78 8f 6e bd 02 94 d2 3d
       0.05904481 -0.012810513 -0.05824229 0.102821365
000130 92 62 a8 bd 00 07 97 bc 8a 32 f9 3d c6 29 9d 3d
       -0.08221926 -0.018435955 0.12167843 0.07673983
000140 cc 5f 3e 3d a0 ca 80 bb cc 47 5e 3d ec e8 d4 3d
       0.046478078 -0.003930405 0.05426769 0.10395989
000150 dc d6 c0 bd 78 1b a5 bd 7a df ae bd c0 42 9b 3d
       -0.09415981 -0.0806188 -0.085387185 0.07581091
000160 b4 c5 51 bd da 06 d7 bd c4 76 90 3d 36 f7 e8 bd
       -0.051213935 -0.10499354 0.07053903 -0.11375277
000170 bc 45 42 bd 02 ea c8 bd d0 22 07 3c 8e e0 a0 3d
       -0.047429785 -0.098102584 0.008248046 0.078553304
000180 60 6f 75 bc c8 de 6b bd 30 b3 d1 3d c0 b0 a0 bd
       -0.014980167 -0.057585508 0.102392554 -0.078462124
000190 b0 e0 22 3d 4a cf d1 3d 30 7c 3e 3c 1a b4 d3 3d
       0.03976506 0.102446154 0.011626288 0.10337086
0001a0 88 02 50 3d 74 96 fb bd 98 21 9e 3c a0 bb cc 3b
       0.050783664 -0.12284556 0.019303128 0.0062479526
0001b0 5e 48 90 3d de a5 b6 bd de 09 ab 3d 64 30 50 3d
       0.07045053 -0.089183554 0.083514914 0.0508274
0001c0 70 7f 79 3d 00 2b 90 ba 00 7a 03 bd 90 b3 8a bd
       0.06091255 -0.0010999143 -0.03209877 -0.0677253
0001d0 44 9a a2 3d a8 35 e5 3c e4 40 55 3d d4 1f 56 bd
       0.0793958 0.027979687 0.052063838 -0.052276447
0001e0 5a 85 dc 3d a8 f6 e7 bd ca 09 a0 3d ac 29 7f 3d
       0.10767622 -0.11326343 0.07814367 0.0622956
0001f0 5a 34 ba 3d b8 ed bb 3c 60 f6 90 bc 70 16 e3 3c
       0.090920165 0.022940502 -0.017695606 0.02772066
000200 28 9a 38 3d 30 d8 b3 3d 68 72 f2 bd ba 7f d1 bd
       0.04506889 0.08781469 -0.118382275 -0.1022944
000210 58 14 c6 bd 7c d5 f3 3d 90 5e a8 3d 98 83 ae 3c
       -0.09671849 0.11905953 0.08221161 0.021302983
000220 88 3a de bc e8 0d 99 3c c8 3f 10 3d 00 21 00 3a
       -0.02712752 0.018683389 0.035217077 0.000488773
000230 18 f4 aa bc 92 e1 cc 3d 80 10 1e 3b fc fe 0d bd
       -0.020868346 0.100039616 0.0024118721 -0.034667
000240 f0 c0 5a bc d4 fc 2f 3d c8 fc a7 bd 30 75 46 bc
       -0.013351664 0.042965725 -0.08202511 -0.012112901
000250 d8 84 a1 3c 58 6b a1 bd 48 6b 3e 3d 8e a1 aa 3d
       0.019716665 -0.07881802 0.04648903 0.08331595
000260 ee ff 9a bd 6c c8 ef 3d 00 1e 0e 3d a4 ec 94 bd
       -0.07568346 0.11708149 0.03469658 -0.07271698
000270 66 5a a1 bd 36 2d e6 3d 00 30 64 b8 c8 d6 df 3d
       -0.0787857 0.11239092 -5.440414e-05 0.10929638
000280 fe 05 de bd e8 8a 08 bd d0 8a d6 bc 10 fb 0a 3c
       -0.10840987 -0.033335596 -0.026189238 0.0084827095
000290 e0 e3 8f 3d 10 42 88 bc ee 52 fa 3d de 87 b0 bd
       0.070258856 -0.016633064 0.12222849 -0.086196646
0002a0 d2 e8 f9 bd 90 0b bc 3c 38 56 0e bd 5c 7f dd 3d
       -0.1220261 0.022954732 -0.034750193 0.108153075
0002b0 10 3d 2e 3d c2 1c 82 3d f6 02 d6 bd f0 33 ca 3c
       0.042538702 0.06353141 -0.104497835 0.024682969
0002c0 30 8c 84 bd 00 2a 04 bd e0 de 85 3c 62 e2 e3 3d
       -0.06472051 -0.032266617 0.016341627 0.111271635
0002d0 dc 20 1a bd 7a 9f c3 bd 9e c2 b6 3d 8c 34 03 bd
       -0.037628993 -0.09551902 0.08923839 -0.032032534
0002e0 3e f4 f6 3d 58 f2 4d 3d 04 e1 bc bd a4 b3 c5 bd
       0.12058304 0.050279945 -0.09222606 -0.09653404
0002f0 e0 a2 6b bd d6 25 b0 bd a0 31 dc bb 7c 18 9f 3d
       -0.057528377 -0.08600967 -0.006719783 0.07768342
000300 54 47 46 bd 4c a2 4b bd 28 e2 85 bd 5e 5d ac bd
       -0.048407868 -0.049715325 -0.065372765 -0.08416246
000310 88 e4 0a bd 30 08 be 3d a0 2a cf bb da 4d f9 bd
       -0.03390935 0.092789054 -0.00632222 -0.12173052
000320 08 8d 38 bd 48 e7 f1 3d 10 05 d3 bd 7a 59 d3 3d
       -0.045056373 0.118116915 -0.103037 0.10319801
000330 30 86 26 bc 8c 13 64 bd 98 fb c0 3d c4 86 df 3d
       -0.010163829 -0.055682704 0.09422988 0.109143764
000340 18 e9 8f 3d 10 08 4b bc e8 02 fe 3c 00 ad 3b 3b
       0.07026881 -0.012392059 0.031007245 0.0028637052
000350 08 8c b9 3d 4c fa ca 3d 94 d3 f6 bd 18 f5 78 3d
       0.09059912 0.099110216 -0.12052074 0.060780615
000360 f4 34 35 3d 60 a8 33 bc 00 c0 73 3c ac fd 9f bd
       0.044239953 -0.010965437 0.014877319 -0.07812056
000370 80 b4 ae 3c f8 db 5d bd ba bf be bd 94 f8 da 3d
       0.021326303 -0.054164857 -0.09313913 0.10691944
000380 00 2e bf ba 10 1e b1 3c d2 d6 c5 3d 58 f3 43 bd
       -0.0014585853 0.02162078 0.09660114 -0.047839493
000390 3c 49 62 3d 00 e3 48 bb e0 58 01 bc 38 c1 b0 3c
       0.055245623 -0.003065288 -0.007894725 0.021576509
0003a0 54 ea 9c 3d 44 3a c1 bd 36 1e 88 bd a8 24 bc bc
       0.07661882 -0.094349414 -0.06646387 -0.022966698
0003b0 48 7f 94 3c 0e b6 b0 bd e4 b0 6d bd 92 0d a6 bd
       0.018127099 -0.08628474 -0.058030024 -0.08108057
0003c0 16 62 9b bd 40 7c 8d bc bc 28 fe bd f0 11 75 3d
       -0.07587068 -0.017271161 -0.12410113 0.05983156
0003d0 cc 00 61 3d e8 cb f5 3d e8 d0 f8 bc bc d2 06 bd
       0.0549324 0.12001783 -0.030373052 -0.032915816
0003e0 fc 4b 15 3d 44 48 cd bd 90 1c 62 3d 5e 4f 8d bd
       0.036449417 -0.10023549 0.05520302 -0.06899904
0003f0 1c bf fc bd ca 0b ee bd a8 15 fb bc e2 e4 ab bd
       -0.12341139 -0.11623342 -0.030649975 -0.08393265

model.2.bias f4 [32]
000000 3a fc d7 bd a8 2b c0 bc 30 d5 88 bc 20 86 89 bc
       -0.10546155 -0.023458317 -0.016703218 -0.016787589
000010 50 f3 89 3d f0 41 70 3d 24 8b d3 bd 3e ff a8 bd
       0.06735861 0.058656633 -0.10329273 -0.082518086
000020 5a a2 f2 3d 58 37 15 3d b4 43 20 3d 64 e5 aa bd
       0.11847372 0.036429733 0.039127067 -0.08344534
000030 f2 86 b0 3d 78 64 b3 bc be 2f e1 bd 56 00 9e 3d
       0.08619489 -0.021898493 -0.10995434 0.07714908
000040 ce 39 83 3d 6a 3c a7 3d 7c 38 27 bd 00 a8 9f b9
       0.0640751 0.0816582 -0.040825352 -0.00030452013
000050 a6 9f 9e 3d 90 ab bd bd fc f7 0c 3d 40 33 e7 3d
       0.07745294 -0.092612386 0.034416184 0.11289072
000060 00 90 6d bb e2 74 b0 3d ac bb 89 3d 40 df 7d bd
       -0.003624916 0.086160436 0.06725249 -0.061980486
000070 d0 49 3d 3d 98 cf ba bd f8 d6 15 3d 40 cc 64 bb
       0.04621297 -0.091216266 0.036581963 -0.0034911782

model.4.weight f4 [16, 32]
000000 cf e7 2f 3e 46 12 bc 3d 88 00 90 bc bf 31 88 bd
       0.17178272 0.09183173 -0.017578378 -0.06650113
000010 96 89 ab 3d 9f 10 03 3e 30 fc 09 3d d8 1f 39 bd
       0.08375852 0.12799309 0.03368777 -0.045196384
000020 f8 0e a2 bd 30 36 b2 bd f5 b6 17 3e 38 39 c9 3c
       -0.07913011 -0.08701742 0.14815886 0.024563417
000030 52 6b ba 3d 8a 29 ae 3d d0 45 13 be 0e c2 ec bd
       0.09102501 0.08504017 -0.143821 -0.115604505
000040 b8 24 8f bc e8 db d4 bc 38 bc fb 3c c8 88 16 bd
       -0.017473564 -0.025983766 0.030729398 -0.03675154
000050 12 d7 05 be 1e 51 a6 3d e8 8e 85 bc 7b b9 d3 bd
       -0.13070324 0.081209406 -0.016303495 -0.10338112
000060 56 ce b2 3d 5a f6 2f be 14 a3 44 bd 40 79 de 3c
       0.08730762 -0.1718382 -0.048007086 0.027157426
000070 82 79 ea bd 14 26 5d 3d 86 26 c3 3d a8 a7 46 bd
       -0.11448957 0.053991392 0.09528832 -0.048499733
000080 76 11 b0 3d 68 9b 1c be 3c 01 30 3d a0 92 f0 bc
       0.085970804 -0.15293658 0.042969927 -0.029366791
000090 7c 02 66 bd 70 9a 30 3c 27 e9 24 3e f0 4f 0d be
       -0.056154713 0.010779008 0.16104566 -0.13800025
0000a0 f8 02 0d 3d d9 90 1c 3e a8 ed d9 3c 33 69 03 3e
       0.03442666 0.1528963 0.026602581 0.12833099
0000b0 0d 96 10 be fb 04 0e 3e 68 ed f5 bd a2 e9 c8 bd
       -0.1411974 0.13869087 -0.12008172 -0.09810187
0000c0 a1 a0 2b 3e 88 a5 41 3d 42 f4 b9 3d 95 16 27 3e
       0.16760494 0.047277004 0.090797916 0.16317208
0000d0 c2 0f 19 be 0b 5b 05 be a2 3c fc 3d 0c 0c b8 bd
       -0.14947417 -0.13023011 0.12316252 -0.08986673
0000e0 e0 7a e7 3b 82 48 1c be c8 4c 5d 3d 40 a5 7c bb
       0.0070642084 -0.15262035 0.054028302 -0.0038550645
0000f0 c8 52 4c bd 3e d2 f2 bd af da 16 3e e9 79 06 3e
       -0.049883634 -0.11856507 0.14731859 0.13132443
000100 80 0f f0 bd 39 fe 2c be c0 05 30 bd 2f 86 30 be
       -0.117217064 -0.16893853 -0.042974234 -0.17238687
000110 0e de e4 3d 2e 43 e3 3d 08 d2 92 3c a4 1d 30 be
       0.11175166 0.11096798 0.017922416 -0.17198807
000120 ed dc 2c 3e 60 46 ee bc 10 dc 83 3d ff 70 16 be
       0.16881151 -0.029086292 0.06438458 -0.14691542
000130 4f 7c 0e 3e a8 73 27 bd 2a c7 21 be ae 05 ed 3d
       0.13914607 -0.040881783 -0.15798631 0.11573349
000140 70 a1 52 bd 73 39 1d 3e 28 5c 87 3c 6c 6b ad bd
       -0.05142349 0.15353946 0.016523436 -0.08467755
000150 9c 31 12 3d 16 21 ba 3d 9e 3f 57 bd 8c 95 57 bd
       0.035691842 0.09088342 -0.052550904 -0.052632853
000160 70 41 3d 3c 8a d5 df 3d 1a 50 d8 3d a8 28 9a 3c
       0.011551246 0.10929401 0.10562153 0.018818215
000170 d9 2b 0e 3e f4 e8 3f 3d 86 22 f3 bd cc 37 17 bd
       0.13883914 0.04685302 -0.11871819 -0.036918446
000180 dc 25 ec bd 34 1a 36 bd 27 8d 92 bd 32 8b fd 3d
       -0.115306586 -0.044458583 -0.07155829 0.12380065
000190 ea 03 e5 bd e0 85 32 3c 00 c9 76 3d a6 9f 8c 3d
       -0.11182387 0.010896176 0.060250282 0.06866388
0001a0 78 ff 10 be 91 a4 ab bd f0 d8 b9 bd 66 46 e5 3d
       -0.14159954 -0.08380998 -0.09074581 0.11195068
0001b0 94 21 77 3d ba ea f4 bd 52 e2 ab 3d a8 ee 2e bd
       0.060334757 -0.11958833 0.083927765 -0.04270807
0001c0 f4 d3 53 3d 38 9a 63 3d 9e c6 a2 3d aa 55 9a 3d
       0.051715806 0.055566996 0.079480395 0.075358704
0001d0 f0 5c c4 bd e0 1f cf bc 7e cc 2b be 40 f7 a4 bb
       -0.09588039 -0.025283754 -0.16777226 -0.0050343573
0001e0 c2 74 30 be 14 6b 0e be 28 bd ab bc a8 e5 57 3d
       -0.1723204 -0.13908035 -0.02096422 0.05270925
0001f0 fa 4b 90 bd d8 dc da 3c 3b 8a 25 be c0 fb 4d 3b
       -0.070457414 0.026716635 -0.16166012 0.0031430572
000200 98 bc 68 bd b0 a7 94 bc ee 71 b9 3d a1 83 92 bd
       -0.056820482 -0.018146366 0.090549335 -0.071540125
000210 0c e5 a2 bd 1e 26 d4 3d e6 6f f7 3d 26 2d af 3d
       -0.079538435 0.10358833 0.1208189 0.08553533
000220 11 c5 00 3e 99 d4 ae bd 7a b7 c8 3d c3 cc 1e 3e
       0.12575175 -0.085366435 0.098006204 0.15507798
000230 83 7f 28 be e0 a0 5d 3d 00 2a bc bc 38 1a 34 be
       -0.16454892 0.0541085 -0.022969246 -0.17588127
000240 60 94 3b bd f5 f5 2e 3e d9 d6 19 be 53 30 18 3e
       -0.0457958 0.17086013 -0.15023364 0.14862184
000250 b8 2a 23 be 74 99 21 3d 54 93 24 bd aa b0 fc 3d
       -0.15934265 0.039452985 -0.040179566 0.123383835
000260 4c 4f 36 3d e2 e6 b9 3d d3 a5 ad bd ef 43 83 bd
       0.044509217 0.090772405 -0.08478894 -0.06409442
000270 9a 10 f1 3d c0 f9 b3 bc 20 b9 bf bb 78 07 42 bd
       0.117707446 -0.021969676 -0.005850926 -0.047370404
000280 c0 3c e0 3c f8 df 82 3d 6c df 1d be f6 12 2b be
       0.027372718 0.06390375 -0.1541726 -0.16706452
000290 80 b5 19 bc 10 f9 67 3d f1 ee f7 bd 5c f1 ac bd
       -0.009381652 0.05663401 -0.12106121 -0.08444473
0002a0 2b c4 00 be 84 4f 43 3d 00 68 e2 bb 66 c8 ca 3d
       -0.12574832 0.047683254 -0.0069093704 0.09901504
0002b0 35 16 22 be 49 79 28 3e 2e 42 0d be 1e 5a f9 3d
       -0.15828784 0.16452517 -0.13794777 0.121753916
0002c0 d5 df c4 bd ba 28 84 3d b0 db 8d 3c 2c c4 24 bd
       -0.09613005 0.064530805 0.01731667 -0.040226147
0002d0 4b f6 01 3e 32 b4 fd 3d c2 59 b2 3d c3 f3 9a bd
       0.1269161 0.12387885 0.08708526 -0.07566025
0002e0 b2 d4 21 be de e5 fd 3d ec d3 01 be b0 df 1b bd
       -0.15803793 0.12397359 -0.12678498 -0.038055122
0002f0 9c d6 63 bd 95 a0 bf bd 90 84 89 3d 94 1e 42 3d
       -0.05562459 -0.093568005 0.067147374 0.047392443
000300 b2 44 c9 3d 40 2e 11 bc 09 eb 0e be a8 95 68 3d
       0.09827556 -0.0088611245 -0.13956846 0.05678335
000310 a8 fa fc bc 78 e0 8e bd 41 0c 05 3e fe a3 a3 3d
       -0.030881241 -0.06976408 0.12992956 0.079902634
000320 36 c2 27 be 29 69 1f be a1 75 1a 3e 88 e8 1b 3d
       -0.1638268 -0.15567459 0.15083934 0.038063556
000330 62 46 03 be 88 b2 3f 3d 40 db b1 3b b8 ce 03 3d
       -0.12819818 0.04680112 0.005427748 0.032179564
000340 e8 73 1a bd 79 4b 01 3e 25 36 96 bd 1d fc 31 be
       -0.037708193 0.12626447 -0.07334546 -0.1738133
000350 40 b5 6e 3c d2 22 dd 3d 64 06 40 3d 1d b2 15 3e
       0.014569581 0.10797657 0.046881095 0.14618726
000360 c0 59 ff 3b 43 39 07 3e d2 a4 96 3d 88 93 15 be
       0.0077926815 0.13205437 0.07355656 -0.1460706
000370 78 13 60 3d dd 10 05 3e 64 d9 17 bd d2 24 ec 3d
       0.054706067 0.12994714 -0.037072554 0.115304604
000380 09 e9 2e 3e 89 01 26 be 34 7a 40 bd b5 59 0b 3e
       0.17081083 -0.16211523 -0.046991542 0.1360844
000390 a2 8d b1 3d 9a be de 3d 7c b0 07 3d 90 ad 33 3c
       0.086695924 0.10876198 0.033127293 0.0109666735
0003a0 e7 76 16 be 02 92 22 be 42 2e db bd 17 c2 e5 bd
       -0.14693795 -0.1587601 -0.10702182 -0.1121866
0003b0 57 f6 2f 3e ef ee 04 be 28 52 33 be 27 81 bc bd
       0.17183815 -0.12981771 -0.17511809 -0.09204321
0003c0 90 59 38 bd 60 4a c2 3b 25 a2 28 be 32 70 8b bd
       -0.04500729 0.0059292763 -0.16468103 -0.06808509
0003d0 c5 5b 12 be 26 5a d7 3d 08 31 34 3d 07 88 0d 3e
       -0.1429282 0.10515241 0.043992072 0.13821422
0003e0 58 ab 04 be 37 67 0f be 53 48 01 be e0 ba b1 3c
       -0.12955987 -0.14004217 -0.12625246 0.021695554
0003f0 28 ed ce bd 3c 9f ed bd 9b 19 02 3e d0 b0 29 3c
       -0.10103828 -0.11602637 0.1270508 0.010357097

model.4.bias f4 [16]
000000 e2 37 74 bd 40 e9 80 3c e9 fc 13 3e dc 2f 11 bd
       -0.059623607 0.015736222 0.14451946 -0.035446033
000010 cc 01 4d 3d 88 bc e6 3c 1c d7 fd bd a9 ed 09 3e
       0.05005054 0.02816607 -0.123945445 0.13469566
000020 40 25 4b bb 68 b0 5e bd 8c f8 2c bd b7 58 06 3e
       -0.0030997545 -0.054367453 -0.04222922 0.1311978
000030 60 50 5f 3c f8 94 bf bc ef 05 0a 3e f0 f6 3d 3d
       0.013630003 -0.023386464 0.13478826 0.046378076

model.6.weight f4 [4, 16]
000000 e0 24 1c 3c 76 9a 58 3e f6 7f 5a be 50 3c 95 3d
       0.009530276 0.21152672 -0.21337876 0.07286894
000010 fc 4e 76 3e 44 86 16 be 00 64 a5 3d 58 fe 61 3e
       0.24053568 -0.14699656 0.08075714 0.2206968
000020 f4 13 c9 3d ea 79 0d be 60 20 57 3e c0 0a 46 3d
       0.09818259 -0.13816038 0.21008444 0.048350096
000030 50 e6 50 3d a6 2e 66 3e c8 59 d7 3d e4 c9 f4 bd
       0.051000893 0.22478732 0.10515171 -0.1195257
000040 00 10 b1 b8 98 f0 9e bd 3c 84 53 3e cc 37 4c 3e
       -8.442998e-05 -0.07760733 0.20655912 0.1994316
000050 40 61 c5 bd 3c 76 88 3d 68 a6 c5 3d b0 44 18 bd
       -0.096376896 0.066631764 0.0965088 -0.03717488
000060 5c 4d a7 bd 80 5a 2e bd 18 17 76 be 3e 1b 6f be
       -0.08169052 -0.042566776 -0.24032247 -0.23350236
000070 40 d5 00 bc 40 51 b7 3d 00 f2 74 bb ba 5b 4b 3e
       -0.007863343 0.08951044 -0.0037375689 0.1985921
000080 00 d4 e7 ba 38 25 53 3e 86 fd 33 3e 80 1c d5 bd
       -0.0017687082 0.20619667 0.1757718 -0.104058266
000090 ce e4 0f be 72 a5 31 be a8 5c a7 bd a8 e0 4a bd
       -0.14052126 -0.17348269 -0.0817197 -0.049530655
0000a0 5e 34 79 3e ca a6 4a 3e f0 e6 ef 3d 04 53 79 be
       0.24336383 0.19790187 0.1171397 -0.24348074
0000b0 68 13 3f bd 48 85 65 bd c4 c0 ec bd c8 c1 1b 3e
       -0.046649367 -0.05603531 -0.115602046 0.1521064
0000c0 14 2d 61 3e 50 d8 41 3e 60 3b 15 be a6 3c 47 be
       0.21989852 0.18930173 -0.14573431 -0.1945673
0000d0 88 95 11 bd 60 62 9c bd 30 84 f8 3c 54 61 1a be
       -0.035542995 -0.07635951 0.03033647 -0.1507619
0000e0 1a 14 5a 3e 40 af dd bd 28 b1 1c bd fc 37 ed bd
       0.2129673 -0.10824442 -0.038254887 -0.11582944
0000f0 48 43 55 3d a0 15 7a bc 4a 95 79 3e 2c 44 a0 3d
       0.052066118 -0.015263945 0.24373356 0.07825503

model.6.bias f4 [4]
000000 ac 07 91 3d e8 e1 3a bd 8c 6e 7d 3e 80 1b 83 bb
       0.070815414 -0.045625597 0.24749202 -0.004001081
